sae_128_4.pt (torch, 68384 bytes, 3 tensors)

pre_bias f4 [64]
0	0xbd325a4c	-0.043543145
1	0x3cdf0e47	0.027228488
2	0x3d0a1e5b	0.033720355
3	0xbd07b83e	-0.03313469
4	0xbc858daf	-0.016302912
5	0xbc1af282	-0.009457232
6	0xbc1ac592	-0.0094465185
7	0xbd17b4f4	-0.037037805
8	0xbbe8a60b	-0.007099872
9	0xbcb5d25e	-0.022195037
10	0x3c6a631b	0.014305855
11	0xbd8f16d9	-0.0698678
12	0xbc0462e5	-0.008080219
13	0xbc400fc4	-0.011722509
14	0x3d09757e	0.033559315
15	0x3baa31db	0.0051939315
16	0xbcafc141	-0.021454455
17	0x3cae67b7	0.02128969
18	0x3cff83b1	0.031190725
19	0x3b52007b	0.0032043743
20	0xbca90ccf	-0.02063599
21	0xbc8fbcd7	-0.0175461
22	0xbd375397	-0.04475745
23	0xbca2e20a	-0.019883174
24	0xb9af4c9a	-0.00033435674
25	0x3c81fa09	0.015866296
26	0xbd21b718	-0.039481252
27	0xbd0e66f7	-0.034766164
28	0xbc4386d5	-0.011934002
29	0xbc6a81fd	-0.014313218
30	0xbc65ccc5	-0.014025872
31	0xbc41e64b	-0.011834691
32	0xbc7c1d5f	-0.015387862
33	0xbbd81bc5	-0.0065951073
34	0xbd689ef2	-0.056792207
35	0x3c4a3011	0.0123405615
36	0xbcbf4f94	-0.023353375
37	0x3bc5e09c	0.0060387384
38	0xbccf018d	-0.025269294
39	0x3ce06bce	0.027395155
40	0xbc0bceca	-0.008533189
41	0xbd18f1b8	-0.037339896
42	0xbcc6ce34	-0.024268247
43	0x3ab91a69	0.0014122251
44	0xbc9ef25a	-0.019402672
45	0xbc5d653e	-0.013512908
46	0x3cf8b89d	0.030361468
47	0x3d1ffcfb	0.03905962
48	0xbbd4dd19	-0.0064960835
49	0xbcf5177c	-0.029918425
50	0xbb0aa1c6	-0.0021153553
51	0xbc45a38c	-0.012062918
52	0xbc68fedc	-0.014220919
53	0xbcf1f580	-0.029536009
54	0xbc107e6b	-0.008819203
55	0x3c8b5c7f	0.017011879
56	0x3c119c4d	0.008887363
57	0x3a435dab	0.0007452617
58	0xbd0413a4	-0.032245293
59	0x3cc98259	0.024598287
60	0xbc7a1ab0	-0.015265152
61	0x3cf4a0dc	0.02986186
62	0xbb82c328	-0.0039905496
63	0x3d837809	0.06419379

encoder_bias f4 [128]
0	0xbcda1882	-0.026623014
1	0xbd911d95	-0.070857204
2	0xbcb4384c	-0.0219995
3	0xbdbeb5b8	-0.09312004
4	0xbd22e1aa	-0.03976599
5	0xbcd481da	-0.025940824
6	0xbbb454b1	-0.00550326
7	0xbcbf5470	-0.023355693
8	0xbd55e933	-0.05222435
9	0xbc9c0276	-0.019044142
10	0xbc5018dd	-0.01270124
11	0xbbd2de6c	-0.006435206
12	0xbc9f5079	-0.019447552
13	0xbbcb41be	-0.0062029054
14	0xbb55bb28	-0.0032612775
15	0x3adeda93	0.0017002396
16	0xbd24256f	-0.040074762
17	0xbcb5228b	-0.022111198
18	0xbb557759	-0.0032572357
19	0xbd1a5784	-0.037681118
20	0xbd738d52	-0.059460945
21	0xba4387a0	-0.00074588694
22	0xbcabc629	-0.020968514
23	0xbd2cff75	-0.04223581
24	0xbc70d80a	-0.014699945
25	0xbb013f72	-0.0019721654
26	0xbcc4ebfd	-0.02403831
27	0x3bdc4a6c	0.006722739
28	0xbca993c0	-0.020700336
29	0x3bb39f0f	0.0054816077
30	0xbc544159	-0.012955033
31	0xbc5638ab	-0.013075034
32	0xbbb7cbf2	-0.005609029
33	0xbc3ac260	-0.011398882
34	0xbcddd8e5	-0.027080962
35	0xbbff7a61	-0.007796571
36	0xbd4b1ab3	-0.04958601
37	0xbc39af79	-0.01133334
38	0xbc948615	-0.018130342
39	0xbc88e183	-0.016709095
40	0x3b5db175	0.0033827696
41	0x3a96a95b	0.0011494564
42	0xbc852f8c	-0.016258024
43	0xbc2e1bc6	-0.010626739
44	0xbcd0c9f8	-0.025486931
45	0xbc176f8e	-0.009242905
46	0xbcb3de70	-0.021956652
47	0xbd7bb869	-0.061455164
48	0x3b7a52fb	0.0038196433
49	0xbcb3df63	-0.021957105
50	0xbcbe46d1	-0.023227127
51	0xbcc8f529	-0.024530964
52	0xba9150f3	-0.0011086747
53	0x3b006908	0.0019593854
54	0xbce0b381	-0.027429344
55	0xbc4d29d8	-0.012522183
56	0xbc851320	-0.016244471
57	0xbca671c6	-0.020317923
58	0xbd40aa4a	-0.0470374
59	0xbc5a2b2d	-0.013315958
60	0xbcca116a	-0.024666507
61	0xbd1250d8	-0.03572163
62	0xbc6b61c6	-0.014366573
63	0xbd106083	-0.03524829
64	0xbc81d209	-0.015847223
65	0xbc440fe4	-0.011966679
66	0xbc65e52a	-0.014031688
67	0xbd0896bb	-0.033346873
68	0x3bba00af	0.005676351
69	0xbbf777fe	-0.007552146
70	0xbcf45a9b	-0.02982836
71	0xbbc526f6	-0.0060166074
72	0xbbcd1595	-0.0062586763
73	0xbd1425cc	-0.03616886
74	0xbbdd6454	-0.006756345
75	0xbc1a11a7	-0.009403623
76	0xbd2f676f	-0.04282325
77	0xbcb2961b	-0.021800091
78	0xbcb3fc6e	-0.021970954
79	0xbc5ccf26	-0.013477122
80	0xbc8c99ff	-0.017163275
81	0xbc5b710b	-0.013393651
82	0xbc1ca706	-0.009561306
83	0xbc76f5ed	-0.015073282
84	0xbced7b28	-0.02898939
85	0xbc4ede4c	-0.012626242
86	0xbb0d34f5	-0.0021546457
87	0xbcfc68ad	-0.030811632
88	0xbd542607	-0.05179408
89	0xbc4e0187	-0.012573606
90	0x3974f393	0.00023360392
91	0xbda286f9	-0.079359
92	0xbc23fbd2	-0.010008769
93	0xbc860553	-0.01635996
94	0xbaca2302	-0.001542181
95	0xbcba4537	-0.022738082
96	0xbc4af0d8	-0.012386523
97	0xbcc55756	-0.024089497
98	0x3b1b8eab	0.002373616
99	0xbb76a4db	-0.0037634883
100	0xbc900997	-0.017582698
101	0xbc8edbba	-0.017438758
102	0xbcb5075f	-0.022098241
103	0x3bdf18d6	0.0068083806
104	0xbc0d6872	-0.008630859
105	0xbcab38ae	-0.02090105
106	0xbc89ace5	-0.016806075
107	0x3b2db3bc	0.0026504835
108	0xbcad4629	-0.021151619
109	0xbbc634d9	-0.0060487804
110	0xbc9b10ad	-0.01892885
111	0xbc0e1922	-0.008672984
112	0x3a51c212	0.0008001636
113	0xbce1ca69	-0.027562337
114	0xbbb51dbb	-0.005527226
115	0xbc245bd8	-0.010031663
116	0x3bb0a119	0.005390298
117	0xbc15abe8	-0.009135224
118	0xbba949d8	-0.0051662736
119	0xbc6a627a	-0.014305705
120	0xbc0efdb0	-0.008727476
121	0xbc668005	-0.014068608
122	0xbca0b75a	-0.019618679
123	0xbd8ff85a	-0.07029791
124	0xbc38c7c1	-0.011278094
125	0xbd098c3a	-0.033580996
126	0x3c143df4	0.009047974
127	0xbd9a81de	-0.075443015

decoder_weights f4 [128, 64]
0	0xbe1d90be	-0.15387246
1	0x3d94c828	0.07264739
2	0x3dae40b4	0.08508435
3	0x3bc90a71	0.006135278
4	0xbd5e114e	-0.05421572
5	0x3d8afecc	0.0678688
6	0x3c98e403	0.018663412
7	0x3d2be1e7	0.041963484
8	0x3d9862b8	0.07440704
9	0xbcb687ae	-0.022281494
10	0x3d5341f5	0.051576573
11	0xbe1341d0	-0.14380574
12	0x3d850a59	0.06496114
13	0xbe22a0fd	-0.15881725
14	0x3dd21b4e	0.10259114
15	0x3d507085	0.050888557
16	0x3d825a09	0.06364829
17	0xbd83005f	-0.06396555
18	0x3e279763	0.16366343
19	0xbe3bd92c	-0.18344563
20	0xbd7a9d8a	-0.061185397
21	0xbdadea62	-0.084919706
22	0xbe662646	-0.22475538
23	0xbdcdec72	-0.10054864
24	0xbe18c792	-0.1491988
25	0x3e1c1b1b	0.15244715
26	0xbdd94be0	-0.10610175
27	0xbdf9d95b	-0.121996604
28	0xbe193224	-0.14960533
29	0xbd14b740	-0.036307573
30	0xbe0505c9	-0.12990488
31	0x3cee3408	0.029077545
32	0x3bff0c63	0.007783459
33	0xbe32e895	-0.17471536
34	0xbdb96683	-0.09052756
35	0x3e227459	0.15864696
36	0x3e05bbd9	0.1305994
37	0xbdbf2e10	-0.093349576
38	0xbcc4b96c	-0.024014197
39	0x3d5b4252	0.053530045
40	0x3c8e1a18	0.017346427
41	0xbc3cff1e	-0.011535434
42	0xbe671c00	-0.22569275
43	0xbe1f3968	-0.15549242
44	0x3e224a87	0.15848742
45	0x3e0d921b	0.13825266
46	0x3d5cec3d	0.053936232
47	0xbb60cdd1	-0.0034302364
48	0xbe9886ed	-0.2979044
49	0xbe5dcfd5	-0.21661313
50	0x3d50fb68	0.05102101
51	0xbe28a49e	-0.16469046
52	0x3e1af42d	0.15132208
53	0x3d9b23e6	0.075752065
54	0xbe55e515	-0.20888169
55	0x3df43457	0.119240455
56	0x3d451010	0.04811102
57	0xbd7b2c35	-0.061321456
58	0x3da6ed2f	0.08150708
59	0xbe64dc51	-0.22349669
60	0xbc9b533b	-0.018960586
61	0x3e4ade7e	0.19811437
62	0x3e37f50f	0.17964576
63	0xbd836f6c	-0.064177364
64	0xbd1b06f8	-0.037848443
65	0xbd8dc221	-0.06921793
66	0x3d37269c	0.044714555
67	0x3daec964	0.08534506
68	0x3d7278be	0.05919718
69	0xbd8ce143	-0.06878903
70	0x3d35c8d0	0.044380963
71	0x3da64a98	0.081196964
72	0xbe105eb1	-0.14098622
73	0xbdb307e0	-0.087417364
74	0x3e32ac08	0.17448437
75	0xbd09680c	-0.033546492
76	0xbe00fba9	-0.12596
77	0x3dd5d29c	0.10440561
78	0xbdb4c933	-0.08827438
79	0x3e7aea09	0.2450334
80	0x3d9ac2ae	0.075566635
81	0xbaa78df7	-0.0012783398
82	0xbea001d5	-0.31251398
83	0x3ec25763	0.37957296
84	0x3c2ce2fb	0.010552163
85	0x3dd6d1e8	0.10489255
86	0x3e2f7828	0.1713568
87	0xbd7d74fd	-0.061879147
88	0x3d5d4c3f	0.054027792
89	0xbe7de2e1	-0.24793579
90	0xbe5b2b8b	-0.21403329
91	0xbcd7f903	-0.026363855
92	0xbc76b0a4	-0.015056763
93	0x3ca83526	0.020533156
94	0xbe03b746	-0.12862882
95	0xbdf38010	-0.1188966
96	0xbd04ea43	-0.032449972
97	0xbd77c04a	-0.060486116
98	0x3de0f799	0.109847255
99	0x3d43e02f	0.04782122
100	0xbe728479	-0.23683347
101	0xbe3dff56	-0.18554434
102	0x3ddf42dc	0.10901424
103	0xbda9970d	-0.08280764
104	0xbe5da56d	-0.21645136
105	0x3ddf3655	0.10899035
106	0x3def9dfe	0.117000565
107	0x3e3e2b80	0.18571281
108	0xbd48ba2c	-0.049005672
109	0xbe351edc	-0.17687553
110	0xbe169fe4	-0.14709431
111	0x3c798850	0.015230253
112	0xbd3d6cc5	-0.04624631
113	0xbdf2542c	-0.11832461
114	0xbb58de1c	-0.0033091372
115	0xbe1c2416	-0.1524814
116	0x3d72a8fa	0.05924318
117	0xbcedee64	-0.029044338
118	0x3dcb1c82	0.09917547
119	0xbd56a499	-0.052403066
120	0x3e99275c	0.2991284
121	0x3e76e4a7	0.24110661
122	0x3cdacc87	0.026708854
123	0xbd9a2cea	-0.07528098
124	0xbe04a8ed	-0.12955065
125	0x3b8adc77	0.0042377072
126	0xbe625758	-0.22103631
127	0xbc78f432	-0.015194939
128	0xbe366470	-0.17811751
129	0x3d1f48cd	0.038887788
130	0x3e16c8e7	0.14725076
131	0x3da5953d	0.080851056
132	0xbe0d0f22	-0.13775304
133	0xbe18d497	-0.14924847
134	0xbd6354c0	-0.055500746
135	0xbeaa6dfa	-0.3328703
136	0x3cbc3d12	0.02297834
137	0x3dd4c50f	0.103891484
138	0xbe56715d	-0.20941682
139	0x3c656785	0.014001732
140	0xbcfd3e05	-0.030913362
141	0x3e2a58e5	0.16635473
142	0x3ddc7240	0.10763979
143	0x3e2accb2	0.16679648
144	0x3e1ae4b5	0.15126307
145	0xbcc03688	-0.023463503
146	0x3d9ad8a7	0.075608544
147	0xbd98839c	-0.074469775
148	0x3e2d7150	0.16937757
149	0xbdfe75fd	-0.12424848
150	0x3e2924c7	0.16517936
151	0xbe4cc4e7	-0.19996987
152	0xbd9231c0	-0.07138395
153	0xbc9723b6	-0.018449645
154	0x3d5804f4	0.0527391
155	0x3e34e3bf	0.17665003
156	0xbda6b716	-0.081403896
157	0x3e02e907	0.12784205
158	0xbe04b635	-0.12960131
159	0xbe9728cd	-0.29523316
160	0x3d303273	0.043016862
161	0x3d4bd7c8	0.049766332
162	0x3dc38322	0.09546496
163	0xbb003d64	-0.0019567842
164	0x3dcda1e5	0.100406446
165	0x3d4bb9f4	0.049737886
166	0x3dce4911	0.1007253
167	0xbcaa6d8a	-0.020804185
168	0x3c922fee	0.01784512
169	0xbd304fc8	-0.043044835
170	0x3e099f39	0.13439645
171	0xbe9baa87	-0.3040354
172	0xbc69b94d	-0.014265371
173	0x3e50b043	0.20379739
174	0x3d9cc264	0.076542646
175	0xb9e47320	-0.00043573324
176	0xbd85a16c	-0.065249294
177	0x3e805dbe	0.2507152
178	0xbda0446c	-0.078255504
179	0x3d3f22dd	0.046664108
180	0x3d34502e	0.044021778
181	0xbd019a33	-0.031641196
182	0xbd6300d5	-0.055420715
183	0xbd5ae96b	-0.05344526
184	0x3de82fcc	0.113372415
185	0xbda78a69	-0.081806965
186	0x3e064513	0.13112287
187	0x3cf32a13	0.029683148
188	0x3d7fb9ef	0.06243318
189	0x3e46351a	0.19356194
190	0xbd7f3a46	-0.062311433
191	0xbc710bb7	-0.014712266
192	0xbbaf2eed	-0.00534617
193	0xbc9017c0	-0.01758945
194	0xbd3784b6	-0.044804297
195	0xbbebcaec	-0.007195821
196	0xbe2d6ffe	-0.16937253
197	0x3df86e70	0.12130439
198	0x3da3c297	0.079960994
199	0x3ea85c8c	0.32883108
200	0x3dccd065	0.100006856
201	0xbc950c12	-0.018194232
202	0x3e360e9e	0.17779014
203	0xbe55a81f	-0.20864914
204	0xbe02b3d4	-0.12763911
205	0xbd6c7a74	-0.057733968
206	0x3dec8b2e	0.11549984
207	0xbcf2d350	-0.029641777
208	0xbdbc764d	-0.092022516
209	0x3d7c0bee	0.061534815
210	0xbd7410bd	-0.059586275
211	0xbe2d6cc4	-0.16936022
212	0xbdcb5efb	-0.099302255
213	0x3cfc398c	0.03078916
214	0xbe0a0578	-0.13478649
215	0x3d85fbde	0.065421805
216	0x3b8d2f4b	0.0043086163
217	0x3e1f2ed2	0.15545204
218	0xbe80247e	-0.2502784
219	0x3e6252e7	0.22101937
220	0xbe21d1d8	-0.15802705
221	0x3da29eb4	0.079404265
222	0xbd85fda4	-0.06542519
223	0xbd1c93a0	-0.038226724
224	0xbde913d2	-0.113807335
225	0xbc9af3d0	-0.018915087
226	0xbd73909c	-0.059464082
227	0xbe0b5857	-0.13607918
228	0x3e1c898f	0.1528685
229	0xbcc9e3e0	-0.024644792
230	0x3cd1fd14	0.025633372
231	0xbdb5a5e6	-0.08869533
232	0xbe1b44ed	-0.15163012
233	0x3d217347	0.039416578
234	0x3ddd86b2	0.10816707
235	0x3d7916f6	0.060812913
236	0x3e5e9a55	0.2173856
237	0x3d314c01	0.043285374
238	0xbe1e0c78	-0.15434444
239	0xbdb864c4	-0.090035945
240	0x3d812ab2	0.063069716
241	0xbde9078d	-0.11378393
242	0x3e13426a	0.14380804
243	0x3dae0677	0.08497327
244	0xbdf1cfb2	-0.11807193
245	0xbd8f2f32	-0.06991424
246	0x3d44c93d	0.04804348
247	0xbc14093b	-0.009035404
248	0x3e5f1201	0.21784212
249	0xbd6c11bb	-0.057634097
250	0xbe4f82ec	-0.20264786
251	0xbc4cd27c	-0.012501355
252	0xbe1acacb	-0.15116422
253	0x3cc4cf91	0.024024757
254	0x3dbec9ed	0.09315858
255	0x3e25b935	0.16183932
