sae_512_4.pt (torch, 266528 bytes, 3 tensors)

pre_bias f4 [64]
0	0xbd2b1a82	-0.041773327
1	0x3ce92ffe	0.028465267
2	0x3cfa327f	0.030541657
3	0xbd04094f	-0.03223544
4	0xbc961c28	-0.018323973
5	0xbc0b8d03	-0.0085175065
6	0xbc111a43	-0.008856359
7	0xbd195086	-0.03743031
8	0xbbc6dfda	-0.0060691657
9	0xbcb38a66	-0.02191658
10	0x3c82d44c	0.015970372
11	0xbd8160f4	-0.063173205
12	0xbbf69f72	-0.0075263316
13	0xbc3a3f0f	-0.011367573
14	0x3d161e56	0.036650024
15	0x3c018cd0	0.0079071075
16	0xbc8ea5d3	-0.017413056
17	0x3cc58089	0.024109142
18	0x3ce3caf9	0.027806746
19	0x3b870fd9	0.0041217622
20	0xbc805a44	-0.015668042
21	0xbcac9659	-0.021067785
22	0xbd315fd1	-0.04330427
23	0xbc838211	-0.016053231
24	0x394c99a1	0.00019512187
25	0x3c767293	0.015041965
26	0xbd1e0e37	-0.038587775
27	0xbd1daa6c	-0.038492605
28	0xbc178ccb	-0.009249876
29	0xbc521c05	-0.012824063
30	0xbc891e66	-0.016738128
31	0xbc607757	-0.013700328
32	0xbc75d055	-0.0150032835
33	0xbb39bdaa	-0.0028341808
34	0xbd575cc4	-0.052578703
35	0x3c6bbd0b	0.014388333
36	0xbcb22674	-0.021746852
37	0x3bf83473	0.007574612
38	0xbcdfa9d5	-0.027302662
39	0x3cdc0387	0.02685715
40	0xbc469d53	-0.01212247
41	0xbd139652	-0.03603203
42	0xbcd0dd91	-0.025496276
43	0x3b9de861	0.0048189615
44	0xbc8f45e2	-0.017489377
45	0xbc68ad46	-0.014201468
46	0x3cea9229	0.028634148
47	0x3d2f8ba9	0.0428578
48	0xbbc1cc37	-0.005914237
49	0xbcf25c8d	-0.029585147
50	0xbb356850	-0.0027680583
51	0xbc29eff0	-0.010372147
52	0xbc2ef0cc	-0.010677528
53	0xbcf635d8	-0.030054972
54	0xbbed454e	-0.007240928
55	0x3cae55b5	0.021281103
56	0x3c408cca	0.011752317
57	0x3b3642a4	0.0027810717
58	0xbd0817dc	-0.03322588
59	0x3cbeb0d4	0.023277678
60	0xbc33da20	-0.010977298
61	0x3cf4392f	0.029812424
62	0xb9c0278b	-0.00036650556
63	0x3d72b0c6	0.059250616

encoder_bias f4 [512]
0	0xbc823023	-0.015892094
1	0xbd6a7bc4	-0.05724694
2	0xbd89a47f	-0.06720828
3	0xbcce5af0	-0.025189847
4	0xbcf050b6	-0.029335361
5	0xbd3016f3	-0.042990636
6	0xbd2323d7	-0.0398291
7	0xbc29822d	-0.010345978
8	0xbd8477e3	-0.06468179
9	0xbd0c9879	-0.034325097
10	0xbd63ddb1	-0.055631343
11	0xbd2c5794	-0.04207571
12	0xbd2dacee	-0.042401247
13	0xbcfc2055	-0.030777136
14	0xbbd67ddd	-0.006545766
15	0xbd054555	-0.032536823
16	0xbd74eae2	-0.059794314
17	0xbcdaf4e9	-0.02672811
18	0xbd8d8042	-0.06909229
19	0xbc8dc28e	-0.017304685
20	0xbd71580e	-0.058921866
21	0xbd0663e2	-0.0328101
22	0xbcd75c89	-0.026289241
23	0xbcca5b57	-0.024701757
24	0xbd570ca9	-0.052502308
25	0xbc473114	-0.012157697
26	0xbd0554db	-0.032551628
27	0xbd80a84e	-0.062821016
28	0xbcdf1bf2	-0.027235005
29	0xbd74f9d3	-0.059808563
30	0xbc85fde4	-0.016356416
31	0xbcc94af1	-0.024571868
32	0xbccdd1a0	-0.025124371
33	0xbd408203	-0.04699899
34	0xbd5c9e8f	-0.05386215
35	0xbd524230	-0.051332653
36	0xbd4d4b9f	-0.050120946
37	0xbd2c2cc9	-0.042034898
38	0xbd298f5a	-0.041396476
39	0xbd3ec40b	-0.04657368
40	0xbd831d5d	-0.06402085
41	0xbd50f6ab	-0.05101649
42	0xbd262fc4	-0.040572897
43	0xbcede329	-0.029038982
44	0xbd14ccdd	-0.036328185
45	0xbd028e47	-0.031873967
46	0xbcd8ee58	-0.026480839
47	0xbd3a1af5	-0.045435864
48	0xbd162b2b	-0.036662262
49	0xbd6b09db	-0.057382446
50	0xbd2c565d	-0.04207455
51	0xbcf638fb	-0.030056467
52	0xbd3d4d0c	-0.046216056
53	0xbcf3b4d0	-0.029749304
54	0xbd9e7276	-0.077366754
55	0xbc901d4c	-0.017592095
56	0xbc5e4b32	-0.013567733
57	0xbd0fee90	-0.03513962
58	0xbc59cd04	-0.013293508
59	0xbca6b917	-0.02035193
60	0xbcb9bff0	-0.02267453
61	0xbd07c4d0	-0.03314668
62	0xbaa1a1e2	-0.001233157
63	0xbd57b426	-0.052662037
64	0xbd051187	-0.03248742
65	0xbd4c9d4e	-0.049954705
66	0xbd3ac7c8	-0.045600682
67	0xbcab95eb	-0.02094551
68	0xbd3f8d59	-0.04676566
69	0xbd1c0a7e	-0.038095944
70	0xbd70fce9	-0.058834944
71	0xbd0ee08b	-0.03488211
72	0xbce4cc8b	-0.027929565
73	0xbd1dccea	-0.0385255
74	0xbd5f8970	-0.05457443
75	0xbcef4218	-0.02920632
76	0x3c037d58	0.00802549
77	0xbcda79cc	-0.026669405
78	0xbd3c9dd1	-0.046048943
79	0xbcbf83f2	-0.023378346
80	0xbd7eff67	-0.06225529
81	0xbd801637	-0.06254237
82	0xbd70d977	-0.05880114
83	0xbd3b385d	-0.04570805
84	0xbcd88306	-0.026429664
85	0xbd6cdf85	-0.057830352
86	0xbdade5ba	-0.084910825
87	0xbcebfb7f	-0.028806446
88	0xbcacdfa7	-0.02110274
89	0xb981eb1e	-0.00024779973
90	0xbd0179cb	-0.03161029
91	0xbcf272ce	-0.029595759
92	0xbd235537	-0.03987619
93	0xbcdc3778	-0.026881918
94	0xbcff7556	-0.03118388
95	0xbd07ce94	-0.033155993
96	0xbd92d65f	-0.07169794
97	0xbdfa95f5	-0.12235633
98	0xbd1cf8a9	-0.03832308
99	0xbcf9667a	-0.030444372
100	0xbbc85e5d	-0.0061147646
101	0xbd8d0b94	-0.06886974
102	0xbcc3285d	-0.023822958
103	0xbcc8c360	-0.024507225
104	0xbd9691fc	-0.07352063
105	0xbc2137bd	-0.009839949
106	0xbd364059	-0.04449496
107	0xbce074ad	-0.027399385
108	0xbcb0a6a7	-0.021563841
109	0xbd3af6c6	-0.045645498
110	0xbd088260	-0.03332746
111	0xbd5f34ec	-0.05449383
112	0xbd760af2	-0.060069032
113	0xbd847aba	-0.06468721
114	0xbbe1d8a8	-0.0068922825
115	0xbcd9c215	-0.026581803
116	0xbb6b793d	-0.0035930418
117	0xbd0f80de	-0.035035007
118	0xbdaa7842	-0.083237186
119	0xbceca93c	-0.028889291
120	0xbd14d66f	-0.036337312
121	0xbc6785ba	-0.014131004
122	0xbcf4f040	-0.029899716
123	0xbd8058d0	-0.0626694
124	0xbc9389f4	-0.018010117
125	0xbd547308	-0.051867515
126	0xbd7517fd	-0.05983733
127	0xbd48c49e	-0.049015634
128	0xbc4017cb	-0.011724423
129	0xbc89b4f9	-0.016809927
130	0xbd329d43	-0.043607008
131	0xbd8aed3d	-0.06783531
132	0xbd2ba7e5	-0.041908164
133	0xbcd9f269	-0.026604848
134	0xbcd31ed1	-0.02577153
135	0xbd6f77d5	-0.05846389
136	0xbcfa7f34	-0.030578233
137	0xbc8d311e	-0.017235335
138	0xbd543203	-0.051805507
139	0xbd1430f2	-0.03617949
140	0xbd30d675	-0.043173272
141	0xbd0b6f93	-0.034041952
142	0xbd55d1cf	-0.052202042
143	0xbc24c75e	-0.0100572985
144	0xbd547892	-0.051872797
145	0xbd95653e	-0.07294701
146	0xbccea47d	-0.025224918
147	0xbd5fc3c8	-0.05463007
148	0xbcf006bf	-0.029300092
149	0xbd0a6b1b	-0.03379355
150	0xbb4337c3	-0.0029787875
151	0xbd604e60	-0.054762244
152	0xbced1350	-0.028939873
153	0xbca2899d	-0.01984101
154	0xbcbd9200	-0.023140907
155	0xbd25eee4	-0.040511027
156	0xbd4bb81f	-0.04973614
157	0xbd5fdf39	-0.05465624
158	0xbbab0d76	-0.0052201105
159	0xbd99b092	-0.07504381
160	0xbd0692dc	-0.0328549
161	0xbcf9ac5c	-0.030477695
162	0xbc90eddc	-0.017691545
163	0xbc4cfda2	-0.012511643
164	0xbd537ccb	-0.051632684
165	0xbda9e802	-0.08296205
166	0xbc859179	-0.016304718
167	0xbd686770	-0.05673927
168	0xbd09698d	-0.033547927
169	0xbd3ab5b8	-0.045583457
170	0xbd04f9d3	-0.032464813
171	0xbd307468	-0.043079764
172	0xbd2a60d3	-0.041596245
173	0xbd82f4e8	-0.063943684
174	0xbd5c4844	-0.053779855
175	0xbd062bde	-0.03275668
176	0xbd0504e3	-0.032475363
177	0xbd51a432	-0.05118198
178	0xbca7facb	-0.02050533
179	0xbd41d0a3	-0.047318112
180	0xbcb20878	-0.021732554
181	0xbd17b98f	-0.037042197
182	0xbcf559bb	-0.029950013
183	0xbd366aed	-0.044535566
184	0xbd307012	-0.04307563
185	0xbc0504f8	-0.00811886
186	0xbd02a963	-0.03189982
187	0xbcf85122	-0.030312125
188	0xbd0aea9b	-0.033915143
189	0xbd9c923a	-0.07645078
190	0xbd5e79ca	-0.054315366
191	0xbd24fb8d	-0.04027896
192	0xbd2406ad	-0.04004543
193	0xbc44a964	-0.0120032765
194	0xbc99abda	-0.018758703
195	0xbd13ab9a	-0.036052324
196	0xbc7b7299	-0.015347146
197	0xbc0cf431	-0.008603142
198	0xbcb8546b	-0.022501191
199	0xbd816c9e	-0.06319545
200	0xbd6275f2	-0.055288263
201	0xbd58c546	-0.05292251
202	0xbcfc40b5	-0.030792573
203	0xbd723fa7	-0.059142735
204	0xbdb5e0d5	-0.08880774
205	0xbda82633	-0.08210411
206	0xbd6e4cff	-0.058178898
207	0xbd3044e9	-0.043034468
208	0xbd0a8345	-0.033816595
209	0xbd34a991	-0.044107024
210	0xbc44fda0	-0.01202336
211	0xbd9c4678	-0.07630628
212	0xbd2f93d8	-0.042865604
213	0xbd767124	-0.060166493
214	0xbd75a4fc	-0.059971794
215	0xbdad804a	-0.08471735
216	0xbd85e4f2	-0.065378085
217	0xbd21699c	-0.039407358
218	0xbd5f112d	-0.05445974
219	0xbc96e31f	-0.018418847
220	0xbd4825af	-0.048864063
221	0xbc3ecce3	-0.0116455285
222	0xbcfa31c2	-0.030541304
223	0x3b234e1b	0.002491838
224	0xbd3d0598	-0.046147913
225	0xbca367df	-0.01994699
226	0xbd8d1ea8	-0.06890613
227	0xbcead7f4	-0.028667428
228	0xbc5dcd31	-0.013537691
229	0xbcf10181	-0.029419662
230	0xbd19a6f8	-0.03751275
231	0xbd5f485a	-0.05451236
232	0xbcf015db	-0.029307296
233	0xbd780eec	-0.060561106
234	0xbd840599	-0.0644638
235	0xbc618233	-0.013763952
236	0xbd1ab48e	-0.037769847
237	0xbc3d8b28	-0.011568822
238	0xbd0bb355	-0.03410657
239	0xbd48b08f	-0.048996504
240	0xbcba1717	-0.022716088
241	0xbd440204	-0.047853485
242	0xbca28960	-0.019840896
243	0xbcd37f6b	-0.025817594
244	0xbd1b36ae	-0.037893943
245	0xbd93369f	-0.071881525
246	0xbc9f6009	-0.019454973
247	0xbd77474c	-0.06037073
248	0xbd33aaf3	-0.0438642
249	0xbaacacb3	-0.0013174027
250	0xbcd36511	-0.025805028
251	0xbd28796a	-0.041131414
252	0xbcdf20ae	-0.027237263
253	0xbd6f79b6	-0.058465682
254	0xbd8a0dc0	-0.06740904
255	0xbd6dfbd3	-0.058101486

decoder_weights f4 [512, 64]
0	0x3d36a66a	0.0445923
1	0xbe26cccf	-0.16289066
2	0x3df76aa8	0.1208089
3	0x3d08047d	0.033207405
4	0xbd27a363	-0.040927302
5	0xbdec40cc	-0.115357965
6	0x3e7fe011	0.24987818
7	0xbd0df8db	-0.034661155
8	0xbdcc3ae3	-0.09972169
9	0xbd8ed3c6	-0.06973986
10	0xbdaf47be	-0.085586056
11	0x3d09b7d6	0.033622585
12	0x3cd33358	0.025781319
13	0x3d217444	0.03941752
14	0x3e7af1c7	0.24506293
15	0x3ca0fb0c	0.019650958
16	0x3e2cdff8	0.16882312
17	0xbd88d106	-0.06680493
18	0x3e728f37	0.23687445
19	0x3dec659a	0.115428165
20	0x3d9af324	0.07565907
21	0xbd8e9aef	-0.06963145
22	0xbd11ebba	-0.035625197
23	0xbdd29b74	-0.102835566
24	0x3e2440a8	0.1604029
25	0xbdc8c482	-0.09803106
26	0x3e66a994	0.22525626
27	0xbe72d6fc	-0.23714823
28	0xbd022602	-0.03177453
29	0x3c0ce493	0.008599418
30	0x3c31b432	0.010846185
31	0x3d0c62ce	0.034273915
32	0x3de4ce0e	0.11172114
33	0x3be47011	0.006971367
34	0xbb92cf79	-0.004480299
35	0xbe065617	-0.13118778
36	0x3d861306	0.06546597
37	0x3dd7464b	0.10511454
38	0xbcef80a6	-0.029236149
39	0x3df09cf6	0.11748688
40	0xbde20651	-0.11036361
41	0x3cfcfa5c	0.0308811
42	0xbdfb703b	-0.12277266
43	0xbea9a5d2	-0.33134323
44	0x3daa96b4	0.083295256
45	0x3e10f949	0.14157595
46	0xbd270d63	-0.04078425
47	0xbdbc0cf3	-0.09182157
48	0x3d6f34b2	0.058399864
49	0xbaaf4e75	-0.0013374822
50	0x3c38a119	0.011268877
51	0xbda44594	-0.080210835
52	0xbdb79139	-0.08963246
53	0x3da02834	0.07820168
54	0x3e19e2d0	0.15027928
55	0x3d97a853	0.07405152
56	0x3e4246e8	0.18972361
57	0xbd8788e7	-0.06617909
58	0x3df24623	0.11829784
59	0x3df83f64	0.12121466
60	0xbcbf88e4	-0.023380704
61	0x3d9207e0	0.07130408
62	0xbd64be3c	-0.055845484
63	0xbdd629c8	-0.10457188
64	0x3ea0d251	0.3141046
65	0x3d362485	0.04446842
66	0xbdd5a69e	-0.1043217
67	0xbe2d02c7	-0.1689559
68	0xbd209ab7	-0.039210048
69	0xbdd84dbc	-0.10561702
70	0x3c41f190	0.011837378
71	0x3e3a3011	0.18182398
72	0xbddfdbec	-0.10930619
73	0xbd03ac9c	-0.032147035
74	0x3e50656a	0.20351186
75	0x3ceca46e	0.028887
76	0x3e66683e	0.22500703
77	0xbca7711e	-0.02043968
78	0xbdf35edb	-0.118833266
79	0xbe706aca	-0.23478237
80	0x3e759742	0.23983482
81	0x3e1d4437	0.15358053
82	0xbe06583b	-0.13119595
83	0xbdd4bf16	-0.10388009
84	0xbdead0e0	-0.11465621
85	0x3e2b93f6	0.16755661
86	0xbda15f50	-0.078795075
87	0xbdeefe39	-0.11669583
88	0x3d3ac6fe	0.04559993
89	0xbe996903	-0.2996293
90	0x3d381472	0.044941373
91	0x3e30ff4b	0.17284887
92	0xbd718381	-0.058963303
93	0x3d07084d	0.0329669
94	0xbd795dd2	-0.06088049
95	0x3e6df420	0.23237658
96	0xbdf683b0	-0.12036836
97	0x3e71c57e	0.23610494
98	0xbc503714	-0.012708444
99	0xbe579299	-0.21052016
100	0x3dc83b29	0.09776909
101	0x3cea5b4c	0.028607987
102	0x3e9bfee9	0.3046792
103	0xbe52c146	-0.2058154
104	0xbe2ef04d	-0.17083855
105	0xbd955ee2	-0.07293488
106	0xbdabf22d	-0.08395801
107	0xbdbf6223	-0.0934489
108	0x3df82097	0.12115591
109	0xbce3679f	-0.027759371
110	0xbe076574	-0.13222295
111	0x3c36ff26	0.011169231
112	0x3d05ecc0	0.032696486
113	0xbd712c58	-0.05888018
114	0x3de4c57e	0.11170481
115	0xbd47bda1	-0.04876483
116	0x3da64be7	0.08119946
117	0x3cc7142b	0.024301609
118	0xbd94a9b7	-0.07258933
119	0x3d107151	0.035264317
120	0xbdae9ff8	-0.08526605
121	0x3d82677c	0.06367394
122	0xbbd4924f	-0.006487168
123	0xbe60d33f	-0.21955584
124	0xbe04155b	-0.12898771
125	0xbda485a3	-0.08033302
126	0x3e19b73f	0.15011309
127	0x3e4ac969	0.19803394
128	0x3d06b573	0.032887887
129	0xbe190e2b	-0.14946811
130	0xbe7996fe	-0.24374005
131	0xbe794ce0	-0.24345732
132	0xbe26257c	-0.16225237
133	0x3d08402b	0.03326432
134	0xbe8b0aed	-0.27156773
135	0x3db2dbf7	0.08733361
136	0xbe2bfcaa	-0.16795602
137	0xbd93c075	-0.07214443
138	0xbe7143b0	-0.23560977
139	0x3db30638	0.087414205
140	0x3c39672c	0.011316102
141	0x3c889f3a	0.016677488
142	0xbe5183c0	-0.20460415
143	0xbe65fd51	-0.22459914
144	0xbc2ea7ec	-0.010660153
145	0x3e2229d4	0.15836269
146	0xbe6762c6	-0.22596273
147	0x3dc0a049	0.09405572
148	0xbd227601	-0.03966332
149	0x3be24967	0.006905723
150	0xbd9e218b	-0.077212416
151	0x3e8bba16	0.2729041
152	0xbb8c27f1	-0.0042772223
153	0x3daea470	0.08527458
154	0x3d3563a1	0.044284467
155	0x3e34aac0	0.17643261
156	0x3da5c4b7	0.08094161
157	0x3d38d6ef	0.04512685
158	0x3dde9030	0.10867345
159	0xbe135273	-0.1438692
160	0xbc1496f3	-0.009069192
161	0xbe420962	-0.18948892
162	0xbd7989b7	-0.06092235
163	0x3e586aff	0.21134566
164	0xbdce5dc2	-0.10076477
165	0x3c6c49ae	0.0144218635
166	0x3cdca05d	0.026931936
167	0xbc283168	-0.010265686
168	0x3dc614fc	0.09671971
169	0xbe7bf79b	-0.24606173
170	0x3e895b25	0.2682735
171	0x3e77cd36	0.24199376
172	0x3e1d322e	0.15351173
173	0xbc587752	-0.013212042
174	0xbe2724f6	-0.16322693
175	0xbca9d9a2	-0.020733658
176	0xbd0bfc41	-0.034176115
177	0xbcb3f87c	-0.021969073
178	0xbcf059e2	-0.029339734
179	0x3ca82bc7	0.020528687
180	0xbe8284c2	-0.2549191
181	0x3de31232	0.11087455
182	0xbd846a6b	-0.0646561
183	0xbdb5a6ad	-0.088696815
184	0xbe52ea39	-0.20597161
185	0xbdca8cea	-0.098901585
186	0x3cc3f276	0.023919325
187	0x3e0fc033	0.14038162
188	0xbe3a4e8c	-0.18194026
189	0xbd5e3741	-0.054251913
190	0xbe013e1e	-0.12621352
191	0x3c0a762a	0.008451024
192	0x3d529647	0.051412847
193	0xbc4cd912	-0.0125029255
194	0x3c5a777b	0.01333415
195	0x3e25bbc2	0.16184905
196	0xbd954767	-0.072890095
197	0xbcdb546c	-0.026773654
198	0xbd2dac37	-0.042400565
199	0x3e1b36c8	0.15157616
200	0xbd9091b8	-0.07059044
201	0x3d910d4d	0.07082615
202	0x3ed241ea	0.41065913
203	0xbda21106	-0.07913403
204	0x3c1d7ed1	0.009612755
205	0xbd9d7339	-0.076879926
206	0x3e068072	0.13134935
207	0xbe56e30f	-0.20985053
208	0xbdabfc30	-0.0839771
209	0x3d6b7019	0.05747995
210	0xbd90ba8a	-0.070668295
211	0x3d8b6bae	0.06807648
212	0x3e36d581	0.17854883
213	0xbcc1a703	-0.023639208
214	0x3d5389c6	0.051645063
215	0x3ca958ff	0.02067232
216	0xbd5a2caf	-0.05326527
217	0x3b6575c1	0.0035012814
218	0xbe1645bf	-0.14675044
219	0xbdce1f25	-0.10064534
220	0xbc648a7b	-0.013949032
221	0x3e2f34b9	0.17109956
222	0x3e6633b9	0.22480668
223	0x3da1b9e8	0.07896787
224	0x3d76f33d	0.060290564
225	0x3e6747bf	0.22585963
226	0xbd260b42	-0.04053808
227	0x3e770bf7	0.24125658
228	0xbd8cbafd	-0.06871603
229	0x3d33bee6	0.043883227
230	0x3e360048	0.17773545
231	0xbe3cd832	-0.18441847
232	0xbc8fddf4	-0.01756189
233	0x3e4bef32	0.19915465
234	0xbdf294aa	-0.11844762
235	0x3e97c309	0.29640988
236	0x3d854e58	0.065090835
237	0x3d9d432c	0.07678828
238	0xbdf0fe01	-0.117671974
239	0x3d6beb2c	0.057597324
240	0xbd783b8e	-0.06060367
241	0x3e2d7515	0.16939195
242	0x3de78154	0.11303964
243	0xbd9293f2	-0.071571246
244	0xbce409f7	-0.027836783
245	0x3d6cdbe4	0.05782689
246	0xbd0cbdb6	-0.03436061
247	0xbdcfdfe1	-0.101501234
248	0xbd8606f9	-0.06544299
249	0xbdc6eb40	-0.09712839
250	0x3e04fe2e	0.12987587
251	0xbd3cc0eb	-0.04608242
252	0xbdc8bccf	-0.098016374
253	0xbdda2ef6	-0.10653488
254	0x3e96932f	0.29409167
255	0xbe926dfe	-0.28599542
