sae_1024_4.pt (torch, 530728 bytes, 3 tensors)

pre_bias f4 [64]
-0.0441997 0.027221778 0.031386063 -0.036455423 -0.018714068 -0.008679049 -0.010055648 -0.037661668
-0.008932605 -0.025387075 0.012053061 -0.06731981 -0.008670198 -0.0131891575 0.032820366 0.0045036515
-0.019381633 0.020785714 0.027836796 0.00033752495 -0.022809792 -0.019967053 -0.045705803 -0.020432891
-0.0035982 0.015142079 -0.03772759 -0.035694655 -0.012120854 -0.013499033 -0.01872892 -0.014890871
-0.016031582 -0.0058487924 -0.055505976 0.010727234 -0.022952383 0.005843123 -0.02699194 0.024970923
-0.011439735 -0.038969994 -0.023219597 0.0013023396 -0.018693056 -0.018697653 0.02684748 0.038597282
-0.007440435 -0.030764682 -0.0059065376 -0.014035698 -0.011893592 -0.030266384 -0.011839596 0.01730832
0.010127325 0.00041476576 -0.03341804 0.024132846 -0.013903429 0.030279255 -0.002764005 0.061141856
00000000: bf0a 35bd 3500 df3c ac8e 003d 4852 15bd
00000010: 3f4e 99bc 9232 0ebc 72c0 24bc 1f43 1abd
00000020: 105a 12bc 8ef8 cfbc 347a 453c f8de 89bd
00000030: 720d 0ebc 5617 58bc a66e 063d 5e93 933b
00000040: 3bc6 9ebc cd46 aa3c fe09 e43c d5f5 b039
00000050: 9adb babc f291 a3bc 0236 3bbd e162 a7bc
00000060: c7cf 6bbb 7c16 783c 3f88 1abd 8f34 12bd
00000070: 8c96 46bc 0c2b 5dbc 646d 99bc d7f8 73bc
00000080: aa54 83bc 3aa7 bfbb 3c5a 63bd 48c1 2f3c
00000090: a306 bcbc ab77 bf3b 331e ddbc d28f cc3c
000000a0: ba6d 3bbc 009f 1fbd 0637 bebc 44b3 aa3a
000000b0: 2e22 99bc d22b 99bc 3fef db3c 2f18 1e3d
000000c0: e4ce f3bb 3706 fcbc a18b c1bb fcf5 65bc
000000d0: 57dd 42bc 35f1 f7bc ddfa 41bc 2eca 8d3c
000000e0: 14ed 253c eb74 d939 5be1 08bd 3fb2 c53c
000000f0: 35cb 63bc 330c f83c 4f24 35bb e26f 7a3d

encoder_bias f4 [1024]
-0.067335576 -0.057398126 -0.011819624 -0.017616812 -0.019336684 -0.07003184 -0.03776604 -0.06002227
-0.050360966 -0.054907277 -0.053911503 -0.0618726 -0.02100152 -0.03503562 -0.072623715 -0.019447938
-0.03705512 -0.08283587 -0.047268588 -0.07384384 -0.048817605 -0.016615622 -0.05526206 -0.042082302
-0.03854044 -0.05118139 -0.05461945 -0.06115985 -0.027072683 -0.0636425 -0.009199035 -0.078525655
-0.055268906 -0.069916055 -0.024712447 -0.056931704 -0.042544656 -0.07341676 -0.06992218 -0.041078303
-0.077631995 -0.07092435 -0.047708794 -0.05454928 -0.047381192 -0.040402707 -0.026334208 -0.060237814
-0.04454225 -0.054544996 -0.040429678 -0.015368286 -0.09104013 -0.079786986 -0.045607775 -0.06446033
-0.045378476 -0.013223254 -0.02536753 -0.035614345 -0.05342118 -0.029455584 -0.037821773 -0.016666826
-0.044036325 -0.04010173 -0.0031106519 -0.041816764 -0.048350498 -0.01539069 -0.055352997 -0.059617367
-0.057362415 -0.03597446 -0.017383728 -0.050837316 -0.06911246 -0.055608884 -0.06710468 -0.016637556
-0.01977913 -0.06701571 -0.029355578 -0.0480401 -0.054597486 -0.061965797 -0.04838992 -0.026891464
-0.026013676 -0.05402697 -0.037869763 -0.055907127 -0.04474025 -0.02586312 -0.036102314 -0.036988966
-0.0053457576 -0.03377917 -0.04963744 -0.03956437 -0.026698763 -0.030913554 -0.0566719 -0.04921577
-0.016598798 -0.04701032 -0.030338682 -0.06970361 -0.016017962 -0.055221207 -0.046573263 -0.083857745
-0.07650239 -0.060372368 -0.07049733 -0.054925803 -0.03229967 -0.025083331 -0.05614488 -0.040622573
-0.040226553 -0.06165801 -0.037714627 -0.073019 -0.03742279 -0.06346552 -0.03118654 -0.015742386
-0.07898299 -0.063418336 -0.0036641692 -0.017999036 -0.040178753 -0.039411202 -0.071154386 -0.06403019
-0.048947547 -0.033254374 -0.033043228 -0.021371571 -0.030754311 -0.042753533 -0.07440724 -0.073301494
-0.012193753 -0.02155262 -0.042927977 -0.043335587 -0.050330438 -0.037983194 -0.057724748 -0.054585956
-0.089195296 -0.051211663 -0.06456136 -0.030867023 -0.040139075 -0.026537133 -0.07424353 -0.058038194
-0.057322722 -0.0656427 -0.0364579 -0.059121016 -0.01527336 -0.047298342 -0.055833388 -0.06796699
-0.067184135 -0.053517282 -0.054091662 -0.05251109 -0.032490022 -0.025423404 -0.057870775 -0.030324431
-0.06412214 -0.06126428 -0.054362793 -0.03171167 -0.0220931 -0.06111079 -0.05283733 -0.018006682
-0.042774912 -0.03786825 -0.045982607 -0.052579716 -0.0502662 -0.04754654 -0.014476382 -0.08398941
-0.075580664 -0.07349234 -0.06429375 -0.04186178 -0.045436654 -0.06611717 -0.054322887 -0.046206597
-0.032163527 -0.08785044 -0.07199037 -0.032529224 -0.0581201 -0.038790002 -0.030573215 -0.02973152
-0.05427228 -0.022383297 -0.03837922 -0.026397305 -0.04668004 -0.065971695 -0.072050504 -0.08295441
-0.0074407635 -0.04733098 -0.07882604 -0.06413473 -0.07012415 -0.045699026 -0.040142167 -0.037618294
-0.050637305 -0.051941678 -0.042385515 -0.034564868 -0.04398026 -0.04977503 -0.0730185 -0.053002406
-0.0070299953 -0.055414774 -0.04165072 -0.05564766 -0.05286708 -0.009794548 -0.04555047 -0.030726824
-0.05596826 -0.04476991 -0.009640134 -0.009590525 -0.049720455 -0.038926 -0.03111428 -0.06129206
-0.0427786 -0.037387166 -0.012896293 -0.058930553 -0.029371196 -0.04204093 -0.08074597 -0.028441532
00000000: 3ce7 89bd 4c1a 6bbd 19a7 41bc 2251 90bc
00000010: f767 9ebc da6c 8fbd 90b0 1abd e9d9 75bd
00000020: 4d47 4ebd 74e6 60bd 4fd2 5cbd 206e 7dbd
00000030: 610b acbc 8381 0fbd bebb 94bd 4851 9fbc
00000040: 1cc7 17bd daa5 a9bd b59c 41bd 703b 97bd
00000050: f8f4 47bd 7c1d 88bc 785a 62bd 7e5e 2cbd
00000060: 95dc 1dbd 94a3 51bd a5b8 5fbd c082 7abd
00000070: 88c7 ddbc 0057 82bd 8db7 16bc 0fd2 a0bd
00000080: a661 62bd 2630 8fbd c271 cabc 3831 69bd
00000090: 4e43 2ebd 875b 96bd 5c33 8fbd b941 28bd
000000a0: 86fd 9ebd c940 91bd 4c6a 43bd 116f 5fbd
000000b0: c812 42bd 4f7d 25bd d6ba d7bc edbb 76bd
000000c0: ef71 36bd 936a 5fbd 9799 25bd 43cb 7bbc
000000d0: 3f73 babd 5c67 a3bd 38cf 3abd c703 84bd
000000e0: c8de 39bd 59a6 58bc 91cf cfbc 59e0 11bd
000000f0: 2bd0 5abd d64c f1bc 01eb 1abd de88 88bc
00000100: 6f5f 34bd b641 24bd 14dc 4bbb 0e48 2bbd
00000110: 2c0b 46bd 3c29 7cbc d3b9 62bd 5731 74bd
00000120: daf4 6abd f559 13bd 5268 8ebc ca3a 50bd
00000130: d58a 8dbd 24c6 63bd 2e6e 89bd 7c4b 88bc
00000140: d807 a2bc 883f 89bd 1c7b f0bc b2c5 44bd
00000150: 9da1 5fbd d9cf 7dbd 8234 46bd 7d4b dcbc
00000160: a21a d5bc 624b 5dbd 531d 1bbd dffe 64bd
00000170: 8d41 37bd e5de d3bc 05e0 13bd be81 17bd
00000180: 772b afbb 075c 0abd a150 4bbd 400e 22bd
00000190: 5db7 dabc 6c3e fdbc cb20 68bd 7a96 49bd
000001a0: 34fa 87bc e58d 40bd d488 f8bc c4c0 8ebd
000001b0: 1a38 83bc a22f 62bd 9bc3 3ebd 9cbd abbd
000001c0: 49ad 9cbd 0449 77bd e760 90bd e1f9 60bd
000001d0: a94c 04bd 8f7b cdbc 2cf8 65bd db63 26bd
000001e0: 99c4 24bd 1c8d 7cbd a77a 1abd fc8a 95bd
000001f0: a448 19bd 36fa 81bd ea7a ffbc 2df6 80bc
00000200: d5c1 a1bd 79e1 81bd 8f22 70bb b772 93bc
00000210: 7a92 24bd a46d 21bd 64b9 91bd 4322 83bd
00000220: 397d 48bd bd35 08bd 5658 07bd 6f13 afbc
00000230: 77f0 fbbc 541e 2fbd d362 98bd 181f 96bd
00000240: 4fc8 47bc 1f8f b0bc 3fd5 2fbd a880 31bd
00000250: 4a27 4ebd 4494 1bbd c970 6cbd 8695 5fbd
00000260: 06ac b6bd 52c3 51bd bf38 84bd d7dc fcbc
00000270: df68 24bd 6764 d9bc fe0c 98bd 75b9 6dbd
00000280: 3bcb 6abd ae6f 86bd e154 15bd e128 72bd
00000290: 1d3d 7abc e8bb 41bd 8db1 64bd 4732 8bbd
000002a0: d697 89bd f034 5bbd 388f 5dbd de15 57bd
000002b0: 4214 05bd be44 d0bc e809 6dbd f16a f8bc
000002c0: 7852 83bd 41f0 7abd 85ab 5ebd 19e4 01bd
000002d0: 97fc b4bc 4f4f 7abd f56b 58bd c082 93bc
000002e0: bf34 2fbd bd1b 1bbd 4258 3cbd d45d 57bd
000002f0: eee3 4dbd 29c0 42bd 592e 6dbc a402 acbd
00000300: 09ca 9abd 2783 96bd 71ac 83bd 4277 2bbd
00000310: c91b 3abd 7068 87bd ad81 5ebd 2143 3dbd
00000320: e7bd 03bd eeea b3bd b06f 93bd 5d3d 05bd
00000330: 580f 6ebd 44e2 1ebd ae74 fabc 848f f3bc
00000340: 9c4c 5ebd 2d5d b7bc 8733 1dbd 293f d8bc
00000350: 9233 3fbd 2b1c 87bd 378f 93bd 00e4 a9bd
00000360: a6d1 f3bb 21de 41bd 8c6f a1bd 1259 83bd
00000370: 409d 8fbd e72e 3bbd 1d6c 24bd a415 1abd
00000380: 1069 4fbd ccc0 54bd 6f9c 2dbd e493 0dbd
00000390: a524 34bd e7e0 4bbd b98a 95bd 0d19 59bd
000003a0: e05b e6bb 9afa 62bd f299 2abd cdee 63bd
000003b0: 278b 58bd 5079 20bc 2193 3abd d2b6 fbbc
000003c0: f93e 65bd a760 37bd a7f1 1dbc 9421 1dbc
000003d0: ada7 4bbd df70 1fbd 60e3 febc 620d 7bbd
000003e0: 9d38 2fbd 4923 19bd f94a 53bc 2a61 71bd
000003f0: dd9b f0bc 1c33 2cbd 255e a5bd 37fe e8bc

decoder_weights f4 [1024, 64]
0.14623037 0.16740353 0.022264343 0.34457022 0.064631425 0.090689145 0.12029966 0.06128742
-0.23447286 0.24703312 -0.14431843 0.041167375 -0.10881962 0.04486974 0.01629009 0.15763105
0.08230229 -0.15196179 -0.047802806 0.08982813 -0.07794136 0.14477672 -0.016564775 0.034899727
-0.043961804 -0.12054283 -0.3926793 -0.04870481 -0.26562995 0.07832512 -0.100603186 0.0657619
0.13971028 0.023742246 0.13632934 0.04278357 0.19095871 -0.2875943 0.11120296 0.029383795
-0.0068312027 0.11178946 0.14371173 -0.044760667 0.104703076 0.077600464 -0.030253334 -0.010324447
-0.06964105 0.23309313 -0.034051664 -0.06970941 -0.14746924 -0.24238504 0.06477144 -0.055913467
0.102386855 -0.13846597 -0.10480618 -0.091889985 -0.14462854 -0.03508022 0.12752634 -0.11590949
0.03177965 0.04055858 -0.09087902 0.1492173 0.074567266 0.06996129 -0.16889486 0.0287947
0.003904503 0.058093153 -0.06481447 0.06884283 -0.10034977 -0.16041833 0.12923004 -0.13294727
0.052800998 -0.013154505 0.14368638 0.25428003 0.011525864 -0.10558636 0.033251088 0.017688487
-0.15994953 -0.009689028 -0.15181352 -0.17543511 0.052442074 -0.11820005 0.010456216 -0.11933678
0.1585751 0.09126367 -0.17036462 -0.21180758 0.06056482 0.007606766 0.07408667 0.0069288616
-0.09483282 -0.0785408 0.11505319 -0.007607775 -0.19779783 0.10212779 -0.20863649 -0.19383244
-0.0769455 -0.028210621 -0.1677002 -0.102186285 0.057579312 0.007023208 -0.16475643 -0.029416256
-0.07731193 -0.0076240916 0.031604577 -0.005994984 -0.03997864 -0.059873622 0.21068804 -0.03488066
0.034284987 0.06678706 -0.021145688 -0.042182785 0.01232139 -0.07600051 0.0098492615 -0.06268697
0.30925742 -0.05194275 0.21755737 0.05572247 0.037155226 0.023586597 -0.08576692 -0.05379882
-0.092883125 0.010664045 -0.10902402 0.12154827 0.19797531 0.16600455 -0.09508624 0.054808334
0.020474024 0.04986129 -0.035416353 -0.16629928 0.009876821 0.13444431 0.16041589 -0.06787224
0.11810177 -0.13892597 0.0058351085 -0.1282326 -0.10225879 -0.2114352 0.05578248 0.15475976
0.22033581 -0.00807958 -0.047079872 -0.058663636 0.17404456 0.24264072 -0.07479883 0.046154168
-0.15064794 -0.16985704 0.15091248 0.04634783 -0.09044921 -0.091273375 0.18695493 0.17720404
-0.13585556 0.18913972 -0.28442517 -0.08324644 -0.2939938 -0.18262075 0.063926056 -0.019273777
0.12792224 0.18942334 -0.07030037 0.022683918 -0.11855858 0.10443601 0.17951667 0.2127787
0.20837761 -0.06075025 -0.081814826 -0.11123812 0.16831544 -0.056772213 -0.07351661 -0.07258809
-0.17825198 0.101886556 -0.012878472 -0.078959525 0.0006707353 0.06832487 0.22018331 -0.088918
0.103739046 0.13207811 -0.026024647 -0.103136666 -0.07075212 0.06744623 -0.17037567 -0.034198727
0.19706847 -0.09813717 -0.092211634 -0.014229098 0.059403095 -0.059488244 0.07060475 0.03609613
0.14823297 -0.06829298 0.093502924 -0.17861079 -0.008696339 0.019798486 -0.21852724 -0.037045367
0.09180461 0.077646464 -0.020892365 0.18530792 0.12432584 -0.04143294 -0.20361793 0.047882218
0.19648398 0.14691216 0.06137198 -0.03767217 -0.19066286 -0.049408793 0.07531951 0.10403232
00000000: 6abd 153e d56b 2b3e b663 b63c 826b b03e
00000010: 7b5d 843d 3bbb b93d ab5f f63d 8508 7b3d
00000020: a719 70be 40f6 7c3e 36c8 13be 1f9f 283d
00000030: d2dc debd 55c9 373d cb72 853c 096a 213e
00000040: 1a8e a83d df9b 1bbe e0cc 43bd d0f7 b73d
00000050: b89f 9fbd 5940 143e dab2 87bc 04f3 0e3d
00000060: 4b11 34bd 29df f6bd 430d c9be b27e 47bd
00000070: a600 88be ec68 a03d 0b09 cebd 2dae 863d
00000080: 3610 0f3e 197f c23c eb99 0b3e d33d 2f3d
00000090: ae8a 433e 8f3f 93be 61be e33d 49b6 f03c
000000a0: 48d8 dfbb dff1 e43d 2b29 133e f656 37bd
000000b0: 916e d63d feec 9e3d d7d5 f7bc df27 29bc
000000c0: f89f 8ebd f7af 6e3e c279 0bbd cfc3 8ebd
000000d0: 2d02 17be c933 78be e4a6 843d 8505 65bd
000000e0: 33b0 d13d 06ca 0dbe 9fa4 d6bd d130 bcbd
000000f0: 8119 14be 47b0 0fbd 4496 023e f461 edbd
00000100: 612b 023d c120 263d c81e babd 6bcc 183e
00000110: b9b6 983d dd47 8f3d c6f2 2cbe dde2 eb3c
00000120: b1e2 7f3b 16f3 6d3d 73bd 84bd 78fd 8c3d
00000130: 2e84 cdbd b444 24be e154 043e 5423 08be
00000140: dc45 583d fe85 57bc 8622 133e fe30 823e
00000150: fad6 3c3c a93d d8bd 4b32 083d 72e7 903c
00000160: cfc9 23be bbbe 1ebc 0175 1bbe 43a5 33be
00000170: 80cd 563d de12 f2bd 8c50 2b3c d766 f4bd
00000180: 8361 223e 72e8 ba3d 1074 2ebe 16e4 58be
00000190: d112 783d 2e42 f93b c1ba 973d 810b e33b
000001a0: b637 c2bd 00da a0bd 02a1 eb3d a44a f9bb
000001b0: 848b 4abe 6028 d13d cea4 55be 037c 46be
000001c0: 9a95 9dbd f619 e7bc 9ab9 2bbe 0b47 d1bd
000001d0: 49d8 6b3d f022 e63b e9b5 28be 5cfa f0bc
000001e0: b855 9ebd 84d3 f9bb cd73 013d 9271 c4bb
000001f0: a4c0 23bd 0b3e 75bd 9bbe 573e 06df 0ebd
00000200: 6a6e 0c3d a7c7 883d b939 adbc dbc7 2cbd
00000210: a8df 493c 28a6 9bbd cc5e 213c 0762 80bd
00000220: fd56 9e3e ecc1 54bd 5cc7 5e3e 3f3d 643d
00000230: 1430 183d ae38 c13c 91a6 afbd 275c 5cbd
00000240: 8239 bebd 3fb8 2e3c fc47 dfbd 4dee f83d
00000250: 0aba 4a3e 19fd 293e 93bc c2bd b47e 603d
00000260: 24b9 a73c 5a3b 4c3d bd10 11bd 5c4a 2abe
00000270: 64d2 213c c5ab 093e 1044 243e 9a00 8bbd
00000280: 57df f13d 9c42 0ebe 7034 bf3b 684f 03be
00000290: 0e6d d1bd 7882 58be 2b7c 643d 5879 1e3e
000002a0: b69f 613e 3760 04bc d3d6 40bd 4849 70bd
000002b0: bd38 323e cf76 783e 2130 99bd 270c 3d3d
000002c0: 7443 1abe 01ef 2dbe cd88 1a3e 39d7 3d3d
000002d0: 6f3d b9bd 89ed babd 1d71 3f3e fa74 353e
000002e0: b81d 0bbe d8ad 413e 2da0 91be 1c7d aabd
000002f0: 5b86 96be ef00 3bbe aaeb 823d 0ae4 9dbc
00000300: 0cfe 023e 31f8 413e a4f9 8fbd a0d3 b93c
00000310: d7ce f2bd 8ce2 d53d 38d3 373e a9e2 593e
00000320: f160 553e 41d5 78bd 888e a7bd d0d0 e3bd
00000330: e25a 2c3e fb89 68bd e08f 96bd 11a9 94bd
00000340: b087 36be e6a9 d03d 3a00 53bc 88b5 a1bd
00000350: 49d4 2f3a e9ed 8b3d bc77 613e a41a b6bd
00000360: 2375 d43d 7c3f 073e a431 d5bc 5139 d3bd
00000370: 7de6 90bd 4021 8a3d f676 2ebe f713 0cbd
00000380: 51cc 493e 24fc c8bd 74d9 bcbd 2a21 69bc
00000390: a950 733d f2a9 73bd 3999 903d 89d9 133d
000003a0: 62ca 173e 31dd 8bbd 767e bf3d bfe5 36be
000003b0: 177b 0ebc 6f30 a23c 9bc5 5fbe e2bc 17bd
000003c0: 0e04 bc3d 1c05 9f3d 7726 abbc 5cc1 3d3e
000003d0: 8c9e fe3d 96b5 29bd 3881 50be 2520 443d
000003e0: 1933 493e 2470 163e 2f61 7b3d 224e 1abd
000003f0: 203d 43be e060 4abd 1e41 9a3d e60e d53d
